notebooks/random/models/tmp.pth (torch_old, 34065 bytes, 6 tensors)

lin1.weight f4 [50, 100]
000000 ce f3 10 3d b0 02 b5 3b e0 c0 18 bd 13 b7 8f bd
       0.03538876 0.005524002 -0.037293315 -0.070173405
000010 eb 0d a2 3d 38 85 8b bc 99 b9 b1 3d 3d b7 65 bd
       0.07912811 -0.017031297 0.08677978 -0.056082953
000020 c6 5e 80 bd d3 af 2a bd 64 e9 09 bd 85 ce cb bd
       -0.062680766 -0.041671585 -0.033669844 -0.099515
000030 ac 09 8d bc d5 04 91 bd fa f9 2a 3d 68 8a f0 bc
       -0.017216526 -0.07081 0.041742302 -0.029362872
000040 8e cc aa bd 4f 16 cc 3d 6a 60 5e bd 1a 43 00 bd
       -0.08339797 0.099651925 -0.054291166 -0.031313993
000050 93 9b 68 bd 31 67 bc 3d 0f b8 86 3d 76 cf 0c bd
       -0.056788992 0.0919937 0.06578075 -0.034377538
000060 50 ef 1c bc 00 0c c2 3a d7 d8 91 3d 70 1e 38 3c
       -0.009578541 0.0014804602 0.07121437 0.011237726
000070 10 9c 1d 3c a0 3f a9 bc fd 25 4c bd 53 2e a4 3d
       0.009619728 -0.020660222 -0.049840916 0.08016648
000080 f6 64 40 3d 81 ff a8 3d ea 51 56 bd 73 f6 28 bd
       0.046971284 0.082518585 -0.052324213 -0.041250657
000090 40 ba c4 bc 99 cb 8d 3d 80 d9 09 3c db 57 a2 bd
       -0.024014592 0.06923599 0.008413672 -0.07926913
0000a0 74 22 18 bd e0 5d b5 bc 78 1b a6 3c e0 eb b8 bb
       -0.037142232 -0.02213949 0.02027677 -0.005643353
0000b0 51 ce 87 3d 96 20 44 3d 72 32 2d 3d 13 24 b9 3d
       0.066311486 0.04788264 0.042284437 0.09040084
0000c0 25 2f 88 3d 71 bc 9a 3d 95 5c c2 bd 08 7d 85 bc
       0.06649617 0.075554736 -0.09490315 -0.016294971
0000d0 10 8f 71 3c b7 3b 4c bd 4f bb 9c 3d 88 0b ee bc
       0.014743581 -0.049861636 0.07652914 -0.029058233
0000e0 81 e3 ba 3d 74 cf 8b 3c c0 ec db ba 2c c2 c3 bc
       0.09125424 0.017066695 -0.0016778931 -0.0238963
0000f0 52 35 64 3d 24 ad e0 3c 94 9f 9e 3c 31 2b 9e 3d
       0.055714913 0.02742631 0.019363202 0.07723082
000100 6f 40 bf bd d4 90 af bc 2c 8d ec 3c 43 0e 43 bd
       -0.093384616 -0.021431364 0.02887591 -0.047621023
000110 80 dd ea bb 80 db 3a bc 82 46 09 3d 7a 23 5d bd
       -0.007167518 -0.011404872 0.033514507 -0.05398891
000120 60 23 39 bd 29 6d be 3d 13 a4 8f 3d 68 2a ca bd
       -0.04519975 0.092981644 0.070137165 -0.098713696
000130 00 d7 36 bb 13 86 bc 3d 2a 4e 88 bd 40 30 21 bd
       -0.0027899146 0.0920526 -0.066555336 -0.039352655
000140 66 e0 7e 3d 80 1f d7 bc e4 e0 d5 3c a2 a6 7f 3d
       0.06222572 -0.026260138 0.026108213 0.062414773
000150 4c b0 fd bc 46 09 89 bd 00 16 33 3b 18 7b 8d bd
       -0.030967854 -0.06691222 0.0027326345 -0.06908244
000160 c9 02 92 3d a5 ed 82 bd 4c 63 f2 3c cb 36 c3 3d
       0.071294375 -0.06392983 0.029588364 0.09531935
000170 42 09 15 3d f4 18 f7 bc 6e 85 44 3d d0 c7 85 3b
       0.036385782 -0.030163266 0.04797881 0.0040826574
000180 7e 48 61 3d 6e 3d 03 3d c0 87 3f bb f4 60 11 bd
       0.055000775 0.032041006 -0.00292252 -0.035492852
000190 33 a4 1c bd 53 22 3e bd 40 cc 37 3c 18 aa af 3c
       -0.03824253 -0.046419453 0.011218131 0.021443412
0001a0 1d 84 83 bd 4c e3 b8 3c 50 f3 96 3b 67 ee 99 3d
       -0.06421683 0.022569321 0.004606642 0.07516175
0001b0 f1 5c 85 3d cf 1e 88 3d 91 b4 8c 3d 10 9f 3a bc
       0.06511868 0.06646501 0.06870378 -0.0113904625
0001c0 1d de 83 bd 18 a8 9b bc 9b 9b c5 bd 09 2f 91 3d
       -0.06438849 -0.019001052 -0.0964882 0.07089049
0001d0 33 49 23 bd e8 0d 7c 3c aa b6 19 3d 10 2d af bd
       -0.03986473 0.015384175 0.037527718 -0.08553517
0001e0 fb 2a 9c 3d f3 7e bf 3d 93 63 a5 bd 28 ef 92 bc
       0.076253854 0.093503855 -0.08075633 -0.017936304
0001f0 c5 69 a9 bd 32 ae 09 3d 92 3f 0f 3d 06 e5 23 3d
       -0.08272127 0.03361339 0.034972735 0.040013336
000200 e0 51 f3 3b 80 1c c2 bd fa db 76 3d 60 b6 9b 3c
       0.0074255317 -0.09478092 0.06026838 0.019007862
000210 c6 cf 0e 3d bf b7 8b 3d d0 d6 6a bd a6 c8 9a bd
       0.034866117 0.06822156 -0.057333767 -0.07557802
000220 7a 00 43 bd 00 11 b6 3b 0a ec 4b bd 17 2c 57 bd
       -0.047607876 0.005556226 -0.04978565 -0.05253228
000230 6c 75 92 bc 56 a6 26 3d 68 c4 3d 3c 3f 34 b4 bd
       -0.017878257 0.040685974 0.011582471 -0.08799028
000240 f3 6d 8f bd 83 d7 c1 bd 00 f4 b0 38 86 52 44 3d
       -0.07003393 -0.09464934 8.4377825e-05 0.047930263
000250 9f 42 bb 3d 77 cc 73 bd d8 10 ad bd be e5 4f 3d
       0.09143566 -0.059521165 -0.08450478 0.05075621
000260 5b 08 b4 bd 16 c2 5d 3d 4d cf 9c 3d 53 c8 33 bd
       -0.08790656 0.054140173 0.07656727 -0.043892216
000270 c8 18 fe bc 45 c4 c9 bd f7 0f 29 bd 72 44 50 3d
       -0.031017676 -0.098518886 -0.04127499 0.050846525
000280 68 35 13 bc 1e d0 0d 3d bb 85 98 3d e8 34 1a bc
       -0.008984901 0.034622304 0.07447382 -0.009412028
000290 f2 13 01 3d 77 57 cc bd 80 96 72 ba 2e 20 34 3d
       0.031513162 -0.0997762 -0.00092539936 0.043976
0002a0 dd ae 6a bd 54 53 b3 3c 72 d2 81 bd a3 e7 cb 3d
       -0.05729567 0.02189032 -0.063389674 0.099562906
0002b0 70 81 1b bc 02 2f 5a 3d b4 ea 01 bd 40 35 63 bb
       -0.0094913095 0.053267486 -0.03171797 -0.003466919
0002c0 34 57 f0 bc 52 84 12 3d c5 b0 cb bd 40 9f 7e 3c
       -0.029338457 0.03577072 -0.099458255 0.015540898
0002d0 bd 9e 92 bd 78 96 82 bc 92 c1 97 bd 0a d0 26 bd
       -0.07159183 -0.01594089 -0.074099675 -0.040725745
0002e0 37 9e 3c bd de a3 07 3d c0 b2 df ba bd bd ba bd
       -0.046049323 0.03311526 -0.0017066821 -0.09118221
0002f0 18 81 08 bc 33 6d 53 bd ea ea 07 bd b5 87 85 3d
       -0.00833156 -0.051617812 -0.033183016 0.06520025
000300 8d e2 b4 bd bc c0 0d bd ab f8 9c bd d0 e3 03 bd
       -0.08832274 -0.034607634 -0.07664617 -0.03219968
000310 96 05 18 3d d8 8d b6 bd 23 aa bb bd 5a 72 34 bd
       0.037114702 -0.08913773 -0.091633104 -0.044054367
000320 37 dc 39 bd a5 82 c8 3d 20 2a b2 bc 92 e0 3e 3d
       -0.04537603 0.097905435 -0.021748602 0.046600886
000330 30 59 78 bc 4e 18 7f 3d 19 6a 8a 3d 5d a8 21 bd
       -0.015157983 0.062279038 0.06758518 -0.039467204
000340 0c be 0f bd c6 0c 44 3d 3f 8e c2 bd 50 d1 ad 3b
       -0.035093352 0.047863744 -0.094997875 0.005304493
000350 8d 17 90 bd 58 7e a8 3c 33 e7 33 bd f3 23 a6 bd
       -0.07035742 0.020568058 -0.04392166 -0.081123255
000360 0d b0 ca 3d 16 9c 18 3d c2 21 c3 bd 98 ec 1b 3c
       0.0989686 0.03725823 -0.09527923 0.009516858
000370 14 07 87 bc 3d 9d 9f bd 50 ee 0a bd f5 8a 80 3d
       -0.016482867 -0.07793663 -0.03391868 0.06276504
000380 f4 0d f2 bc cc f9 d1 bc 32 21 7e 3d 78 b6 84 3c
       -0.029547669 -0.025631808 0.062043376 0.01620029
000390 e9 67 b9 3d 40 7d 87 bc 44 3d e7 3c 10 a1 50 bd
       0.090530224 -0.016539216 0.028227456 -0.05093485
0003a0 a7 61 c5 3d d6 1a 58 3d 68 64 85 3c 67 e8 91 3d
       0.09637766 0.052759968 0.016283229 0.07124405
0003b0 36 a2 a1 bd 2f 27 be bd 17 7c 68 bd f3 3a 4b bd
       -0.078922674 -0.092848174 -0.056758966 -0.049616765
0003c0 08 64 c0 3c 86 50 47 3d 8a 8a 2f bd c6 7b 6e 3d
       0.023485199 0.048660778 -0.04285673 0.05822351
0003d0 08 bc bf 3c 18 fb 9d 3c 89 91 93 3d 48 ba 82 3c
       0.02340509 0.01928477 0.07205493 0.015957966
0003e0 71 02 b1 3d 58 c1 c3 3c 0c ad d5 3c d5 8f a6 3d
       0.08643044 0.023895904 0.026083492 0.081329025
0003f0 04 84 01 bd 73 c8 b3 bd ad 6b c3 3d 16 3d 5d 3d
       -0.03162004 -0.08778467 0.09542022 0.054013334

lin1.bias f4 [50]
000000 5a 81 7f 3d d1 3d 89 3d 30 77 62 bd 6d e8 6b bd
       0.06237922 0.06701244 -0.055289447 -0.057594705
000010 36 fe 0c bd 60 57 be bc 83 bf b5 3d 8d 2d a8 3d
       -0.034422122 -0.023235023 0.088744186 0.08211813
000020 59 0a 95 3d d8 df fe bc 11 66 b3 3d 68 10 49 3c
       0.07277364 -0.031112596 0.08759702 0.012271978
000030 38 9d 94 bd 28 8a 2f bc e2 2b 96 bd 80 b6 77 bd
       -0.072565496 -0.010714091 -0.07332589 -0.06047678
000040 94 9f ae 3c 7e 95 3c 3d d8 2a ca 3c 28 05 ea bc
       0.021316327 0.046041004 0.024678633 -0.028566912
000050 5d 67 76 bd b0 8a 7b bc 37 70 28 bd 9b 7f 8d 3d
       -0.06015717 -0.01535289 -0.04112264 0.069091044
000060 62 bf 99 bd 78 c5 ca bd ad 41 73 bd b4 84 cc bc
       -0.075072065 -0.099009454 -0.059388805 -0.024965622
000070 cf 9c a4 3d c0 c3 32 bd 30 12 28 bd a5 58 c0 3d
       0.08037721 -0.043643713 -0.04103297 0.093919076
000080 48 28 84 bd b4 37 b7 3c 52 25 3d 3d c0 d8 26 bc
       -0.064529955 0.022365429 0.04617817 -0.010183513
000090 18 3a 1d bc f2 0d 7d 3d b6 41 09 3d e3 04 87 3d
       -0.00959637 0.061780877 0.033509932 0.06592729
0000a0 c0 6b 5f 3b 20 20 a5 bc 10 bc 57 bd e8 1e 76 bc
       0.0034091324 -0.02015692 -0.052669585 -0.015022017
0000b0 06 fa 5c 3d e0 97 89 3b f8 05 90 bc 7e 5d 18 3d
       0.05394938 0.004199013 -0.017580971 0.037198536
0000c0 53 f9 89 3d c7 f2 76 bd
       0.06737008 -0.060290124

lin2.weight f4 [20, 50]
000000 50 09 b9 bd 40 3a 59 3c f2 29 15 bd 42 8d 9f bd
       -0.09034979 0.013258517 -0.036416955 -0.07790615
000010 12 92 f7 bd 2e 99 ee 3d 70 66 8c 3c 72 c8 99 3d
       -0.120884076 0.116503105 0.01713869 0.07508935
000020 c4 53 dc 3d 20 77 b8 3c 70 32 48 bc 84 85 d5 bd
       0.107581645 0.02251774 -0.0122190565 -0.10425857
000030 12 83 a0 3d 6b 0a 0a be 0c aa e3 bc 3f 6b 06 be
       0.078375 -0.13480537 -0.027791046 -0.13126849
000040 be 3c bf 3d 19 c6 d6 bd 9c 01 dc 3d e0 64 12 bc
       0.093377575 -0.10487003 0.107424945 -0.008935183
000050 b0 f5 a7 3d 22 42 d0 3d f2 f6 ef bd ac f5 99 bc
       0.08201158 0.10168864 -0.11717023 -0.018793903
000060 c6 08 dd 3d f0 b5 ce 3c 1e 8a 35 bd 00 01 ca bb
       0.10792689 0.025233239 -0.044321172 -0.00616467
000070 c8 93 ca 3d 36 1d e6 3d 08 b6 ec bc 38 07 c6 3c
       0.09891468 0.1123604 -0.028895393 0.024173364
000080 ee 5d 3c bd 72 d6 32 bd b8 4b a5 bd b6 52 9d 3d
       -0.045988016 -0.043661542 -0.08071083 0.076817915
000090 2c 7c 9b bc 8e 22 b4 3d 2c e3 57 3d 54 fd 7a 3d
       -0.018980108 0.08795653 0.052706882 0.06127675
0000a0 4a 05 45 bd b1 1b 82 bd 09 00 03 3e 0c a5 82 3d
       -0.048100747 -0.06352938 0.12792982 0.063791364
0000b0 53 31 10 be 92 aa 46 bd c0 87 fb 3c 60 92 6e bc
       -0.14081316 -0.048502512 0.03070438 -0.014561266
0000c0 40 cf ff bb da d4 c7 bd f0 79 0d 3d 90 00 79 bd
       -0.0078066885 -0.09757395 0.034540117 -0.060791552
0000d0 a0 83 da bd ec d8 e5 bd c8 cf ca 3c 70 63 e4 bc
       -0.10669637 -0.11223015 0.024757281 -0.027879447
0000e0 0e 05 fd 3d da ae 92 3d 30 f7 1b 3c 76 e5 c9 3d
       0.1235448 0.071622565 0.009519383 0.09858219
0000f0 b9 4b 06 3e 8c 2c b6 bd 32 32 b6 bd 0a b2 86 3d
       0.13114823 -0.088952154 -0.08896293 0.06576927
000100 00 a2 1c bb c2 d9 b3 bd 82 10 ff bd eb c7 cd bd
       -0.002390027 -0.087817684 -0.124543205 -0.10047897
000110 10 e4 a0 bd 39 fe 0b 3e 30 f6 f2 3c f9 42 a0 bd
       -0.078559995 0.13671197 0.029658407 -0.07825274
000120 c8 62 f4 3c c2 b7 c4 bd c0 16 b9 bd 71 09 09 be
       0.029832259 -0.096053615 -0.09037542 -0.13382508
000130 07 b7 07 3e a0 5a da 3b 9a e3 f7 3d 90 6b 7a 3d
       0.13253413 0.0066636354 0.121039584 0.061137736
000140 b9 2c 0d 3e 00 f0 b7 3b 30 c0 36 bc 8e 46 21 bd
       0.13786592 0.005613327 -0.0111542195 -0.039373927
000150 4c 53 d7 bc 04 93 6d 3d ec 3e 7a 3d e2 4e c4 3d
       -0.026284836 0.058001533 0.061095163 0.09585358
000160 1a c5 a7 bd ac d0 5f 3d 2e 1c b8 bd 02 57 9e 3d
       -0.08191891 0.054642364 -0.0898975 0.07731439
000170 5c 5d cc bd a4 d8 51 bd 9c 47 aa 3d 10 0e 48 3c
       -0.099787444 -0.051231995 0.0831444 0.012210384
000180 46 ab c9 3d f0 e1 b6 bd 54 b5 b0 bd a0 8e 88 3d
       0.09847121 -0.08929813 -0.086283356 0.066678286
000190 92 79 a1 3d e2 f2 8f 3d a0 4b 30 3d 76 8f d0 3d
       0.07884516 0.07028748 0.04304087 0.10183613
0001a0 14 98 8f bc 9e 88 c5 bd 11 f5 09 3e 4f 69 e9 bd
       -0.017528571 -0.09645198 0.13472392 -0.11397039
0001b0 37 81 e2 bd d6 70 63 bd 90 22 12 3d b8 bf 0a 3d
       -0.11059802 -0.05552753 0.035677493 0.033874243
0001c0 0e db 81 bd a0 54 a8 bd 1e c2 30 bd 60 87 6c bc
       -0.063406095 -0.08219266 -0.043153875 -0.014436573
0001d0 b7 d2 92 bd d2 57 ac 3d 7e 49 84 3d af 7e 88 bd
       -0.07169097 0.08415188 0.0645933 -0.06664788
0001e0 a0 29 58 bc e8 93 c5 3c ac 66 ab 3d 00 40 84 3b
       -0.013193518 0.024118379 0.083691925 0.0040359497
0001f0 b6 ab 01 be 0c a7 9e 3d f1 8b 91 bd bd 30 04 3e
       -0.12663159 0.077467054 -0.0710677 0.12909217
000200 c9 b5 bb bd 76 c7 9f bd 16 78 58 bd 40 d0 80 3d
       -0.09165532 -0.07801716 -0.052848898 0.062897205
000210 80 08 54 3d 9c 74 e1 bc ca 15 ee 3d 6f 6b 91 bd
       0.05176592 -0.027521424 0.1162525 -0.071005695
000220 e4 5f 3a 3d 6d b3 8e bd ae 83 eb 3d f0 13 c3 3d
       0.045501605 -0.069678165 0.11499725 0.09525287
000230 f2 02 bd bd bc a3 9b bc 1a 2a 8b 3d c0 25 78 3b
       -0.092290774 -0.018998973 0.067951396 0.0037864298
000240 7e d2 01 be de f4 60 bd c0 04 97 3b fa 45 8f 3d
       -0.12677953 -0.054921024 0.0046087205 0.06995769
000250 90 7a 9f 3d 30 8d a9 bc 20 f1 b4 bc 65 2c 87 bd
       0.07787049 -0.020697206 -0.022087634 -0.066002645
000260 18 a1 d1 bd bc 4c 92 3d b4 87 60 bd 42 a2 f4 3d
       -0.10235804 0.07143542 -0.054816917 0.11945011
000270 80 ec a6 3d cc 47 57 bd 00 45 a0 bb 4e c8 2c bd
       0.081505775 -0.052558705 -0.004891038 -0.042183213
000280 42 03 0b bd a1 8b 0a 3e d8 e3 a9 3c 90 92 ec bc
       -0.033938654 0.13529827 0.020738527 -0.02887848
000290 a0 36 de bb 54 5a df bd 28 36 9a bc f0 3b 39 bc
       -0.006781414 -0.109059006 -0.018824652 -0.011305794
0002a0 e1 a3 03 be 16 b0 80 3d 04 8a d4 bd 1e eb 9b 3d
       -0.12855484 0.06283586 -0.10377887 0.076132044
0002b0 73 b8 0f 3e 4c c1 08 bd 30 f0 08 be a2 c0 dc bd
       0.14035206 -0.033387467 -0.13372874 -0.10778929
0002c0 88 0f de 3c a8 53 ac 3c 5d 58 01 3e a8 d7 6d 3d
       0.027107015 0.021035984 0.12631364 0.058066994
0002d0 a0 4f 39 bc 18 d5 08 3d c8 2e 85 bd 8c 28 64 bd
       -0.011310488 0.033406347 -0.065030634 -0.05570273
0002e0 a4 3d 11 3d 60 7e 63 bd 4a 09 f1 3d 76 d7 e1 3d
       0.035459176 -0.055540442 0.1176935 0.11027424
0002f0 08 eb 66 3d 10 80 68 3d 86 f5 f5 3d 78 23 d9 3c
       0.056376487 0.056762755 0.120097205 0.02650617
000300 00 fe 54 bc 10 02 0e bc c6 46 e8 3d d9 9a 80 bd
       -0.013000011 -0.008667484 0.11341624 -0.06279535
000310 94 ad ca 3d b2 29 d7 3d 74 cc a0 bd 5a 1e f9 bd
       0.09896389 0.105059996 -0.07851496 -0.12163992
000320 fa 21 d0 3d 50 c9 c5 3c 38 7e a0 3c 1e 4a 15 bd
       0.101627305 0.024143845 0.019591436 -0.036447637
000330 96 91 1c bd 60 f8 0c 3d 20 40 98 bd b6 b8 0f be
       -0.03822478 0.034416556 -0.07434106 -0.14035305
000340 28 8e c0 3c 86 02 bd 3d ca 65 8a 3d 94 0a d5 bc
       0.023505285 0.09228997 0.06757696 -0.02600602
000350 dd 73 07 3e 5e 7c d7 3d 13 0f 8a bd 80 ef 7d bc
       0.13227792 0.10521768 -0.067411564 -0.015498996
000360 68 f6 65 bd c0 69 ad bb 14 69 c0 3d 54 27 17 3d
       -0.056143194 -0.0052921474 0.09395042 0.03690274
000370 48 a2 02 be 31 c3 89 bd 52 95 c8 3d b7 1b 08 3e
       -0.12757218 -0.06726683 0.097941056 0.13291822
000380 54 1e 0a 3d 00 f3 41 ba fa ce 10 be a0 9b 2b bd
       0.03372033 -0.00073985755 -0.14141455 -0.041896462
000390 94 36 b8 3d 80 79 5e bc a9 1a b5 bd 83 ee 9e bd
       0.08994785 -0.013578773 -0.08842976 -0.07760336
0003a0 5c 1a d8 bd 80 87 90 bb dc 98 99 bd c6 26 f5 3d
       -0.10551903 -0.004410684 -0.07499859 0.11970286
0003b0 9a 89 18 bd cd 82 09 be 7a be b0 bd a9 0d 93 bd
       -0.037240602 -0.13428803 -0.086300805 -0.0718034
0003c0 a0 8c d1 bc 64 22 92 3d c0 8f 8f 3c 62 cd b3 bd
       -0.02557975 0.07135466 0.0175246 -0.08779408
0003d0 e4 9a 0d be 31 0f db bd ac c6 ae bd 1a bd 50 bd
       -0.13828617 -0.10696257 -0.085339874 -0.05096159
0003e0 69 f1 ea bd ff e3 a5 bd 88 58 1c 3d 91 7d a0 bd
       -0.114718266 -0.081001274 0.038170367 -0.0783645
0003f0 29 2e 0f 3e 8c 3c 1a bd b8 3f 2b 3d 10 b8 b1 bc
       0.13982452 -0.0376554 0.041808814 -0.021694213

lin2.bias f4 [20]
000000 9c 89 bd bd b6 35 b7 3d cd 57 08 3e fe 8d c9 bd
       -0.092547625 0.089457914 0.13314743 -0.09841536
000010 de aa ac bd 90 52 7e bc a8 f9 bc 3d cc b5 75 bd
       -0.08431028 -0.015522614 0.09227306 -0.059987828
000020 ae cc fc 3d f6 a6 02 be e2 c3 8d 3d 08 2f e1 3c
       0.12343727 -0.12759003 0.06922127 0.027488247
000030 80 22 57 3d 0c 09 22 3d d0 f1 24 3c e0 64 4a bc
       0.052523136 0.03955941 0.010067418 -0.012353152
000040 e8 7f b8 bc 80 a1 06 3c db 6b b3 bd fc d1 32 3d
       -0.022521928 0.008217216 -0.08760806 0.043657288

lin3.weight f4 [100, 20]
000000 e6 bb 2c be 58 4c 81 bc f7 45 df bd 41 ba 5f be
       -0.16868553 -0.015783474 -0.109020166 -0.21848394
000010 40 82 98 bd 78 ce b9 3d 71 e8 ed bd a8 ac ac bd
       -0.07446718 0.09072584 -0.116166 -0.08431369
000020 f6 8d 62 3e c0 71 8a 3d 90 3c 4f 3d e4 5a 95 bd
       0.22124466 0.06759977 0.050594866 -0.07292727
000030 7c 31 1d 3e 75 ec 33 be 80 32 6e 3b 41 75 37 be
       0.15350908 -0.1757067 0.0036346018 -0.17915823
000040 a0 d6 58 3c 0c 80 ad 3d f7 e4 64 be b0 06 85 3c
       0.013234764 0.08471689 -0.22352968 0.01623854
000050 3c 52 c2 3d 0e 81 52 3e b0 f9 b0 bd a8 f2 91 3d
       0.09488341 0.20557043 -0.08641374 0.07126361
000060 a9 01 04 be 78 5c b7 3d fa e2 5b 3e 38 9f d4 3d
       -0.12891258 0.08953184 0.21473303 0.10381931
000070 ea c6 c8 bd b0 60 ca bd 2c d5 40 3e 8a 62 4d be
       -0.09803565 -0.09881723 0.18831319 -0.20057121
000080 20 78 87 3b 80 9d 6d bb 06 a6 14 3e 3a 9f aa bd
       0.004134193 -0.0036257207 0.14516458 -0.08331151
000090 82 ff 2e 3e 30 19 03 3d 40 71 dc bb 44 89 45 bd
       0.17089656 0.032006443 -0.0067273676 -0.04822661
0000a0 6e fc 52 be 1f 96 db bd 80 ab 64 bd 74 d6 b6 3d
       -0.20604107 -0.10721993 -0.055827618 0.089276224
0000b0 08 eb b2 bd fe 7d e7 bd ee 01 34 be 9c e1 51 be
       -0.08736235 -0.11303328 -0.17578861 -0.2049622
0000c0 dc cc f8 bd 74 07 e8 bd 52 47 01 3e 94 30 9b 3d
       -0.12148449 -0.113295466 0.12624863 0.07577625
0000d0 64 7e 63 bd 50 f4 d0 3d c8 66 ac 3d 3a da 54 3e
       -0.055540457 0.10202849 0.084180415 0.20786372
0000e0 28 de 2d 3d a0 4a 3d bc 40 a2 4a 3e c0 f7 42 bc
       0.042448193 -0.0115534365 0.19788456 -0.0118998885
0000f0 a4 34 07 3e d1 d7 e1 bd 90 80 92 3c c8 9a 01 be
       0.13203675 -0.11027492 0.017883569 -0.126567
000100 ba 29 36 3e f0 79 d9 3d a0 9b 80 bd 67 7b 56 be
       0.17789355 0.10618961 -0.06279683 -0.20945512
000110 ee 5a 48 3e c0 c8 39 bb 36 fa 16 3e 3c 3e da 3d
       0.19565937 -0.0028348416 0.14743885 0.106564015
000120 30 10 60 3d f8 72 56 bd 50 40 5f be a0 61 69 3d
       0.054702938 -0.052355736 -0.21801877 0.056977868
000130 0a c7 b6 bd 9d 17 03 be 1c 65 25 3e 8a 80 c1 bd
       -0.089246824 -0.12801977 0.16151851 -0.09448345
000140 90 77 f6 3d a4 bf 89 3d 30 81 10 3e b8 17 7e 3d
       0.120345235 0.06726006 0.14111781 0.06203434
000150 b8 bd b2 bc 90 69 c6 3c 0a 6a 48 be da 5f 1f 3e
       -0.02181898 0.024220258 -0.195717 0.15563908
000160 58 73 45 3d 10 0c 0a be 70 14 1a 3d f0 b0 2c be
       0.048205703 -0.13481164 0.037617147 -0.16864371
000170 48 33 69 3d 32 0e 61 3e 9c 88 83 3d 38 9f 7f 3d
       0.05693367 0.21978071 0.064225405 0.062407702
000180 e2 81 9c bd 00 2f 3d 3b 98 6d 06 be 80 5c 04 be
       -0.07641961 0.0028867126 -0.13127744 -0.12925911
000190 6a 8a 37 3e a0 96 7b 3d ec 03 fa 3d 5c a3 c5 bd
       0.17923895 0.061422944 0.12207779 -0.09650299
0001a0 b0 1e d9 3c b6 f8 43 3e 74 c0 01 bd 17 9c 59 be
       0.02650389 0.19137844 -0.03167768 -0.2125095
0001b0 87 91 48 be f4 ab 4a be 94 79 bf 3d 1c c3 2d 3e
       -0.19586764 -0.19792157 0.09349361 0.1696896
0001c0 20 91 6e 3d f4 9f 81 3d 84 d7 55 3e 87 50 fd bd
       0.05824387 0.06329337 0.20882994 -0.12368875
0001d0 e0 a6 37 3e 51 a8 2e be c8 25 e3 3d f0 f6 2a be
       0.17934752 -0.17056395 0.110911906 -0.16695762
0001e0 46 53 2d be a0 a8 cc 3c 60 3f a3 3d f0 ce 2a 3d
       -0.16926298 0.02498275 0.07971072 0.041701257
0001f0 80 7e 39 3c 98 cc 0b 3e 68 40 21 3e 42 cc 3e 3e
       0.011321664 0.13652265 0.15747225 0.18632606
000200 5a d8 2e 3e c8 6b bd 3d 26 c8 37 be 70 c1 79 bc
       0.17074719 0.09249073 -0.17947444 -0.015243873
000210 86 86 54 3e 6e 33 1a be 59 dd 36 be 54 dc 51 3e
       0.20754442 -0.15058681 -0.17857875 0.20494205
000220 b8 e3 58 bd f0 45 4e be e0 d6 23 3e 74 e2 d2 3d
       -0.052951545 -0.20143867 0.15999937 0.10297099
000230 3e 3e 61 3e a6 9f 53 3e 5c 10 c2 bd e4 4f 08 3e
       0.219964 0.2066637 -0.094757766 0.13311726
000240 28 d6 85 bc 2e d8 f9 bd d8 69 f2 3d 87 23 2d be
       -0.01633747 -0.12199436 0.11836594 -0.16908084
000250 a0 02 a5 3c 34 09 99 3d 04 5b 4d 3e 20 19 42 3d
       0.020142853 0.074724585 0.20054251 0.047387242
000260 10 41 52 3c 4c 9d 21 3e fc cb 2b bd 00 a6 82 3d
       0.012832895 0.1578266 -0.04194258 0.06379318
000270 71 ac e5 bd 56 d6 40 3e 18 62 aa 3c f4 dd ae bd
       -0.11214531 0.18831763 0.020798728 -0.08538428
000280 aa aa 2d be 24 1a bf 3d 69 ec 26 be 80 c3 de bb
       -0.16959634 0.09331158 -0.16301121 -0.0067982078
000290 68 d6 fe bc 4f 34 58 be 20 66 f2 3d 10 2c 91 bd
       -0.031108096 -0.21113704 0.11835885 -0.070884824
0002a0 d0 ad e5 bc 9f 26 38 be 70 ac 67 bd 44 bd 86 bd
       -0.028036982 -0.17983483 -0.056560934 -0.06579068
0002b0 fc f2 10 be f0 58 78 3d 6c b1 c7 3d 90 fb 18 3d
       -0.14155191 0.060631692 0.097506374 0.037349284
0002c0 70 b2 d2 3c 70 7d 0b 3e ac 3e 31 3e d0 31 ca 3d
       0.025719851 0.1362207 0.17309064 0.09872782
0002d0 38 2e 02 be ea 7a 81 bd 35 d6 3b be 01 3c f0 bd
       -0.12712944 -0.06322272 -0.18343432 -0.11730195
0002e0 ca 66 3b 3e 7e 2c 88 bd 3a f7 39 3e 00 3f b2 bc
       0.1830093 -0.06649111 0.18160716 -0.021758556
0002f0 f4 6c 8e 3d 01 b3 4e be a0 cd 92 bd 06 30 0f 3e
       0.06954375 -0.20185472 -0.07168126 0.13983163
000300 a0 d8 54 3e a6 04 d2 bd 6d f1 30 be 48 73 24 be
       0.20785761 -0.10254793 -0.17279597 -0.16059601
000310 da a7 52 3e e6 b9 bc bd 21 b8 44 be ec 25 0d be
       0.20571843 -0.09215145 -0.19210865 -0.13783997
000320 48 14 fe 3d d0 71 15 3d 5c ae 48 3e 76 b2 13 3e
       0.12406212 0.036485493 0.19597763 0.14423546
000330 68 44 81 3c 98 6e 01 bd 02 82 8d bd 08 2d b2 3d
       0.015779689 -0.03159961 -0.06909563 0.08699995
000340 10 c1 3e bd cc 77 9a bd 6c 5e dc 3d e8 90 6c 3d
       -0.046570837 -0.07542381 0.10760197 0.05775538
000350 62 cf 54 be 37 e2 d2 bd 50 2a fc 3d 50 e6 72 bd
       -0.20782235 -0.10297053 0.12312758 -0.059301674
000360 44 48 6e bd a0 6f 3f 3e a8 33 47 3d 18 08 50 3e
       -0.058174387 0.18694925 0.048633248 0.20315588
000370 2c 70 1c bd 78 d2 97 3d ea ba 4e be fc 37 39 3e
       -0.038192913 0.074131906 -0.2018849 0.18087763
000380 a4 1a 06 be 16 90 2e be dc 84 29 3e f8 f1 f1 3d
       -0.130961 -0.17047152 0.16554588 0.1181373
000390 a7 a6 3c be 68 08 46 be cc bf 4f 3e 7c c6 27 bd
       -0.18422948 -0.19339144 0.20288008 -0.040960774
0003a0 04 23 b0 3d 62 0c 03 be 80 51 6f bd c0 ad 40 3d
       0.08600429 -0.12797692 -0.058427334 0.0470407
0003b0 66 22 aa bd 46 38 08 be 20 dc 0e 3e e4 ac 42 bd
       -0.08307342 -0.13302717 0.13951159 -0.047528163
0003c0 fc dd f3 3d e0 15 8f 3c 8c d9 b0 3d 70 1d ef 3c
       0.119075745 0.017466486 0.08635244 0.029188842
0003d0 be 5f 29 3e 82 b9 23 be a0 bc c0 bd 80 47 dd ba
       0.16540429 -0.15988734 -0.09410977 -0.001688227
0003e0 7c 01 81 3d 44 5a 39 be cc 55 48 be 92 6e 1a be
       0.06299111 -0.1810084 -0.19563979 -0.15081242
0003f0 af 6a 53 be 38 f9 4f bd b8 3f 7a 3d 7c aa a5 bd
       -0.20646165 -0.050774783 0.061095923 -0.08089158

lin3.bias f4 [100]
000000 9d f1 4d be 90 77 05 3d 00 54 bf bb 20 c4 ef bc
       -0.201117 0.032584727 -0.005838871 -0.029268324
000010 be 0c 08 be 21 bf 57 be 50 81 5c 3d 6c 38 d8 3d
       -0.13286111 -0.21069004 0.05383426 0.105576366
000020 c9 2f 07 be 54 7d 2c 3e 88 43 68 bd 30 c0 c5 3c
       -0.13201822 0.16844684 -0.056705028 0.024139494
000030 40 17 36 3d 7d 2e 05 be a0 d6 da bc 88 0f b2 bd
       0.044455767 -0.13006015 -0.02671367 -0.086943686
000040 44 c1 a1 bd 73 31 5c be b4 6c 83 3d b0 3b bb 3c
       -0.078981906 -0.21503238 0.06417218 0.02285561
000050 04 6a 2c be ba 57 30 3e cc 02 21 be 30 4b d0 bc
       -0.16837317 0.17220965 -0.15723723 -0.025426477
000060 40 2c 4c be f7 7e 36 be 74 c3 c7 3d e8 81 65 3d
       -0.19938755 -0.1782187 0.097540766 0.05603209
000070 88 4f 1d 3e 10 62 4c 3d 21 ed 43 be 1a 11 21 3e
       0.1536237 0.049898207 -0.19133426 0.1572918
000080 68 7e 4d bd 50 eb ac bc 38 77 c0 3d a8 5f 22 3d
       -0.05016938 -0.0211083 0.09397739 0.039642006
000090 b8 56 e9 bc fa be a9 bd 26 5a ca bd dc b3 1a 3e
       -0.028483734 -0.08288379 -0.09880476 0.15107673
0000a0 0e 84 8c bd 55 87 02 be f5 63 f8 bd 80 48 e3 bb
       -0.06861125 -0.12746938 -0.1212844 -0.006936133
0000b0 2b bc 3c be a0 61 33 be 18 70 c8 3d 60 b1 15 be
       -0.18431155 -0.1751771 0.09787005 -0.14618444
0000c0 18 22 c9 3d b0 49 c7 3c b0 f6 90 3d ae d9 2b 3e
       0.09820956 0.02432713 0.07078302 0.16782257
0000d0 90 cf 5e 3d 40 bd 23 3d c0 cc 0d 3e 5c 56 53 3e
       0.054397166 0.039975405 0.13847637 0.20638412
0000e0 bc 5f 44 3e c6 df 13 3e 88 64 88 3d ee 6f 4d 3e
       0.19177145 0.14440832 0.066598 0.20062229
0000f0 e4 db 48 3e ec 58 3e be 86 fd 41 3e c8 d1 2a be
       0.19615132 -0.18588609 0.18944368 -0.16681588
000100 e6 cc b3 bd 72 3e 26 3e 3c 8f 4e 3e 32 96 5d 3e
       -0.08779316 0.16234758 0.20171827 0.21639326
000110 f3 4f db bd 8a 7a 0e 3e 6e bd 4e be 44 86 b9 3d
       -0.107086085 0.13913932 -0.20189449 0.09058812
000120 4e 9d 16 be be 4f 2a 3e b8 68 0c 3e d4 4f 28 3e
       -0.14708444 0.16631982 0.13711822 0.16436702
000130 20 31 41 3c 60 0c 52 bc 4c 02 c3 bd 1a e3 88 bd
       0.0117914975 -0.012820333 -0.095219225 -0.06683941
000140 52 e2 06 be e6 23 5f 3e 62 72 5b 3e 90 b9 bd 3c
       -0.13172272 0.21791038 0.21430352 0.023159772
000150 b2 6c 4e 3e fe b2 4e 3e e8 d4 0e 3d b6 ea 30 be
       0.20158651 0.20185468 0.034871012 -0.17277035
000160 e8 31 88 3d 20 c3 23 3c 9e 40 34 3e 00 d4 fd 3d
       0.06650144 0.009995252 0.17602775 0.123939514
000170 14 70 3c 3e c0 e4 4a bb 78 a0 bb 3c 2a f3 40 3e
       0.1840213 -0.00309591 0.022903666 0.1884276
000180 fe eb 26 3e 3e a4 0b 3e 0c 1d 28 bd 00 8b 84 3d
       0.16300961 0.13636872 -0.041043326 0.06471825
